Below are the specifications for each trained network.

Model 1
----------------------------------------------------------------
        Layer (type)               Output Shape         Param #
================================================================
            Linear-1             [-1, 1, 1, 34]              68
            Linear-2             [-1, 1, 1, 14]             490
            Linear-3              [-1, 1, 1, 7]             105
            Linear-4              [-1, 1, 1, 1]               8
================================================================
Total params: 671
Trainable params: 671
Non-trainable params: 0
----------------------------------------------------------------

Model 2
----------------------------------------------------------------
        Layer (type)               Output Shape         Param #
================================================================
            Linear-1             [-1, 1, 1, 10]              20
            Linear-2             [-1, 1, 1, 10]             110
            Linear-3             [-1, 1, 1, 10]             110
            Linear-4             [-1, 1, 1, 10]             110
            Linear-5             [-1, 1, 1, 27]             297
            Linear-6              [-1, 1, 1, 1]              28
================================================================
Total params: 675
Trainable params: 675
Non-trainable params: 0
----------------------------------------------------------------

Model 3
----------------------------------------------------------------
        Layer (type)               Output Shape         Param #
================================================================
            Linear-1             [-1, 1, 1, 30]              60
            Linear-2             [-1, 1, 1, 17]             527
            Linear-3              [-1, 1, 1, 8]             144
            Linear-4              [-1, 1, 1, 1]               9
================================================================
Total params: 740
Trainable params: 740
Non-trainable params: 0
----------------------------------------------------------------

In Figure 1 (left) you can see that each of the 3 models accurately fits the cosine function
within the domain of the training data. I plotte the output of the models outside of the 
training data domain to show the limitations of the prediction of these models and show that
…
